Secure RNG turned off. This is perfectly fine for experimentation as it allows for much faster training performance, but remember to turn it on and retrain one last time before production with ``secure_rng`` turned on.
#=========================== Test data ==========================#
test_data:  <torch.utils.data.dataloader.DataLoader object at 0x0000016BB3117808>
RegressionModel(
  (embs): ModuleList(
    (0): Embedding(8, 4)
    (1): Embedding(14, 7)
    (2): Embedding(8, 4)
    (3): Embedding(14, 7)
    (4): Embedding(7, 3)
    (5): Embedding(6, 3)
    (6): Embedding(3, 1)
    (7): Embedding(14, 7)
  )
  (lins): ModuleList(
    (0): Linear(in_features=40, out_features=1000, bias=True)
    (1): Linear(in_features=1000, out_features=500, bias=True)
    (2): Linear(in_features=500, out_features=250, bias=True)
  )
  (bns): ModuleList(
    (0): GroupNorm(1, 1000, eps=1e-05, affine=True)
    (1): GroupNorm(1, 500, eps=1e-05, affine=True)
    (2): GroupNorm(1, 250, eps=1e-05, affine=True)
  )
  (outp): Linear(in_features=250, out_features=1, bias=True)
  (emb_drop): Dropout(p=0.04, inplace=False)
  (drops): ModuleList(
    (0): Dropout(p=0.001, inplace=False)
    (1): Dropout(p=0.01, inplace=False)
    (2): Dropout(p=0.01, inplace=False)
  )
  (bn): GroupNorm(1, 4, eps=1e-05, affine=True)
  (activation): Sigmoid()
) 


=== RUN # 0 ====================================

  0%|                                                               | 0/2 [00:00<?, ?it/s]CUDA initialization: Found no NVIDIA driver on your system. Please check that you have an NVIDIA GPU and installed a driver from http://www.nvidia.com/Download/index.aspx (Triggered internally at  ..\c10\cuda\CUDAFunctions.cpp:100.)
…
